tensorflow-lite-float32-model.3.lite (tflite, 9256 bytes, 6 tensors)

sequential/conv1d/BiasAdd/ReadVariableOp f4 [8]
0	0xbddda330	-0.10822141
1	0xbe904cd0	-0.28183603
2	0xbdc2faed	-0.095205165
3	0xbe544929	-0.20731033
4	0xbe1f3e85	-0.15551193
5	0xbad33af0	-0.0016115587
6	0xbdab082c	-0.08351168
7	0xbe17259f	-0.14760445

sequential/conv1d_1/BiasAdd/ReadVariableOp f4 [16]
0	0x3d363b26	0.044490002
1	0xbdb1d8a8	-0.08683902
2	0xbda163a0	-0.0788033
3	0x3e0ff224	0.14057213
4	0xbd6adb42	-0.057338007
5	0xbddcb4c9	-0.107766695
6	0x3e5ef6ea	0.21773878
7	0xbd606d9a	-0.054792024
8	0xbde8ea97	-0.113728695
9	0xbcc45a7c	-0.023968928
10	0x3e9e8c80	0.30966568
11	0xbd852ac7	-0.065023
12	0xbd5157f8	-0.051109284
13	0x3c0fb1e0	0.008770436
14	0x3d61e4b6	0.055149756
15	0xbd388257	-0.045046177

sequential/conv1d/Conv1D f4 [8, 1, 3, 13]
0	0xbccb70a3	-0.024833983
1	0x3df60807	0.1201325
2	0x3e3eb096	0.1862205
3	0xbbebfcce	-0.0072017675
4	0xbe95d96a	-0.29267436
5	0xbcc10824	-0.023563452
6	0x3d4678b6	0.048454963
7	0x3df88344	0.12134412
8	0xbd8e0678	-0.069348276
9	0xbe9f34fe	-0.31095117
10	0xbc0c0da2	-0.008548172
11	0xbe56b452	-0.20967224
12	0x3ec98106	0.3935625
13	0xbe7d72e3	-0.24750857
14	0xbe13a82b	-0.1441962
15	0x3e91876c	0.2842363
16	0xbe40e975	-0.18839057
17	0xbe11dfe3	-0.14245562
18	0xbdcabc89	-0.098992415
19	0xbeb3657f	-0.35038373
20	0x3ecb88b5	0.39752737
21	0xbe0b328f	-0.13593505
22	0xbcb23806	-0.02175523
23	0x3d848231	0.064701445
24	0x3d76d33c	0.060260043
25	0x3da669a3	0.08125617
26	0x3e7d5c85	0.24742325
27	0xbf0ec252	-0.5576526
28	0x3e48c15f	0.19605015
29	0xbe5b78e1	-0.2143283
30	0xbedad2b8	-0.4273889
31	0x3e1d22c2	0.1534529
32	0xbe60500f	-0.2190554
33	0x3e43139a	0.19050446
34	0x3e7df30a	0.24799743
35	0xbde7a811	-0.11311353
36	0x3cd9d070	0.026588649
37	0xbd3b2b50	-0.045695603
38	0x3ec60a9b	0.38679966
39	0xbeccb167	-0.39979097
40	0x3da0f3d6	0.07859008
41	0xbe86a68f	-0.2629895
42	0x3e9672e0	0.29384518
43	0xbd7534ed	-0.059864927
44	0x3eca9d29	0.3957303
45	0xbecad46b	-0.39615187
46	0x3e1aef59	0.15130366
47	0x3cc15fbf	0.023605226
48	0xbe056010	-0.13024926
49	0xbe6fd947	-0.23422728
50	0xbaa3326f	-0.0012450943
51	0x3de28e1b	0.11062261
52	0xbe31a803	-0.17349248
53	0x3e4292fd	0.19001384
54	0xbe40b1ba	-0.18817797
55	0xbda51eaf	-0.08062493
56	0xbe3bea6f	-0.18351148
57	0x3ed2fb0d	0.41207162
58	0x3ea01e52	0.31273133
59	0x3e8cad9f	0.27476212
60	0xbe2f941c	-0.17146343
61	0x3cdc2132	0.026871298
62	0x3da0345e	0.07822488
63	0x3de800be	0.113282666
64	0xbdae07ce	-0.084975824
65	0xbed49731	-0.415216
66	0xbe13f64b	-0.14449422
67	0xbec0e870	-0.37677336
68	0x3e58af10	0.21160531
69	0x3daa089e	0.08302425
70	0xbdfbd339	-0.12296147
71	0xbde77344	-0.11301282
72	0x3e306006	0.1722413
73	0x3dbd538a	0.092444494
74	0x3e555d15	0.20836289
75	0xbe8008d1	-0.25006726
76	0xbe125c92	-0.14293125
77	0xbd8a6dd0	-0.06759226
78	0x3e4d3fee	0.20043918
79	0x3e8c87bf	0.27447316
80	0xbe274733	-0.16335754
81	0xbebc2ff8	-0.36755347
82	0xbe155874	-0.14584523
83	0xbee3c6db	-0.44487652
84	0x3db923a9	0.09040005
85	0x3e590d81	0.21196558
86	0xbe461b98	-0.19346464
87	0xbe1b3026	-0.15155086
88	0xbcd4ae78	-0.0259621
89	0xbd71f26f	-0.059069093
90	0x3eafd54d	0.34342423
91	0xbe8827b6	-0.26592797
92	0xbdd3d86f	-0.10344016
93	0x3e24623a	0.16053095
94	0x3e021189	0.12702002
95	0xbe468f44	-0.19390589
96	0x3e42f529	0.19038834
97	0xbdc8adbf	-0.097987644
98	0x3eac4273	0.33644447
99	0xbe48b861	-0.19601585
100	0xbdd161b8	-0.102237165
101	0x3d5675dc	0.052358493
102	0x3d6ffa2a	0.058588184
103	0xbe9fa774	-0.31182444
104	0xbd11deb9	-0.035612796
105	0xbedf4d07	-0.43613455
106	0x3e31ca8e	0.17362425
107	0xbed45a60	-0.414752
108	0xbe3b3281	-0.18280984
109	0x3e36a069	0.17834629
110	0xbece39d3	-0.4027849
111	0x3e928be5	0.28622356
112	0x3ec83b05	0.39107528
113	0xbe9e0f5e	-0.308711
114	0xbb957cd8	-0.0045620017
115	0xbe791c99	-0.24327315
116	0x3d98a165	0.074526586
117	0xbe520781	-0.20510675
118	0xbe8ccc95	-0.27499834
119	0x3d52cd10	0.051465094
120	0xbd9cfa54	-0.07664934
121	0x3e48e00d	0.19616719
122	0xbe5585d2	-0.2085183
123	0x3ec31c0a	0.3810733
124	0xbe10a081	-0.14123727
125	0x3e4afa73	0.19822101
126	0xbedcd43a	-0.43130666
127	0x3d82ffa5	0.063964166
128	0xbede75a3	-0.43449125
129	0x3dcba1f5	0.09943
130	0x3d1b9113	0.03798015
131	0xbd8c4f20	-0.068510294
132	0x3db46be3	0.0880964
133	0x3e8e6326	0.2781002
134	0x3e30e2e7	0.17274056
135	0x3cf49ae4	0.029859014
136	0x3e832783	0.25616083
137	0x3d96d141	0.07364131
138	0x3da06bb4	0.07833043
139	0x3e21804e	0.157716
140	0x3dfe76ea	0.12425025
141	0xbd97b97f	-0.074084274
142	0x3db49d18	0.08819026
143	0x3e7fa996	0.24967036
144	0xbe2842e6	-0.1643177
145	0x3ef2cd2c	0.4742216
146	0x3df5bf8a	0.11999424
147	0x3e1ce1a9	0.15320458
148	0x3d8d4264	0.06897429
149	0x3eb77d9f	0.3583803
150	0xbcd26758	-0.025684044
151	0xbbb5f3de	-0.005552753
152	0xbd30f981	-0.043206695
153	0xbe3755ec	-0.1790387
154	0xbe430fa4	-0.19048935
155	0xbe7df1a2	-0.24799207
156	0x3e872629	0.263963
157	0xbd8a4155	-0.06750742
158	0xbd6d415f	-0.05792367
159	0x3e9b42c5	0.3032438
160	0xbdfb7a94	-0.12279239
161	0x3c6ac050	0.014328077
162	0xbe1d9356	-0.15388235
163	0x3e1489c3	0.14505677
164	0xbda8ac52	-0.082359925
165	0x3db446db	0.08802577
166	0xbe4e0cc9	-0.20122065
167	0x3e7683a9	0.24073662
168	0x3e4065bf	0.18788813
169	0x3ded9c8f	0.11602127
170	0xbea5dd4f	-0.32395408
171	0x3edcbc8d	0.43112603
172	0xbd0b57a1	-0.034019116
173	0xbd938c78	-0.07204527
174	0xbe861542	-0.26188093
175	0xbe2cf8da	-0.16891804
176	0xbe2c40c6	-0.16821584
177	0xbd2efae4	-0.042719737
178	0xbea0f799	-0.31438902
179	0xbe980158	-0.29688525
180	0xbe91f229	-0.28505066
181	0xbd689326	-0.056780957
182	0x3c579ccb	0.013159941
183	0x3d56acda	0.052410938
184	0x3ea132e8	0.3148415
185	0xbdcc060b	-0.0996209
186	0xbe4036a5	-0.18770845
187	0x3e323835	0.17404254
188	0xbec298ef	-0.38007304
189	0xbdaa3a10	-0.08311856
190	0x3e004874	0.12527639
191	0xbe386d30	-0.18010402
192	0xbe9b0bdf	-0.30282494
193	0x3d86b94f	0.065783136
194	0xbe2be036	-0.16784748
195	0xbe5c882e	-0.21536323
196	0xbdd8dae3	-0.10588624
197	0xbb69af4b	-0.0035657461
198	0x3e2b5ba5	0.16734178
199	0x3d8b42ab	0.06799825
200	0xba5d494d	-0.00084414036
201	0xbd91a825	-0.07112149
202	0xbdb51687	-0.088421874
203	0xbdd4eb55	-0.103964485
204	0xbc8adf9a	-0.016952325
205	0x3cd19bf0	0.025587052
206	0x3e0fb45b	0.14033644
207	0x3e7acd3a	0.2449235
208	0x3e837b67	0.25680086
209	0xbe377a65	-0.17917784
210	0x3e0f64f0	0.14003348
211	0xbed5c37f	-0.41750714
212	0x3e78390a	0.24240509
213	0xbdcb5acd	-0.09929428
214	0x3e7c60ee	0.2464635
215	0xbd40d66f	-0.0470795
216	0xbdd8ea79	-0.10591597
217	0x3ee95ccf	0.4557862
218	0xbe92c9f4	-0.28669703
219	0x3e8c5f3c	0.27416408
220	0xbeac86c4	-0.33696568
221	0x3dbbf00b	0.09176644
222	0x3ea63223	0.32460126
223	0xbea5b4e6	-0.32364577
224	0x3e85c8d3	0.2612978
225	0xbed75888	-0.4205973
226	0x3eb08ce7	0.344825
227	0x3e3c228e	0.18372557
228	0xbe24dc25	-0.16099603
229	0x3ef01a23	0.4689494
230	0xbd2df3d1	-0.04246885
231	0x3c821a9a	0.015881825
232	0xbeab8a39	-0.33503893
233	0x3ec7a28f	0.3899121
234	0x3d313434	0.043262675
235	0x3ea54c26	0.3228466
236	0x3d97951e	0.07401489
237	0x3dbc6152	0.0919825
238	0x3e450638	0.19240654
239	0xbe4f37b8	-0.20236099
240	0x3dcfdb93	0.10149302
241	0xbe6af6d1	-0.22945715
242	0xbe6e1fa6	-0.2325426
243	0xbcdf1d41	-0.027235629
244	0xbe165a2f	-0.1468284
245	0xbb99b8ea	-0.004691233
246	0xbe6539a2	-0.22385266
247	0xbe59e1fc	-0.21277612
248	0x3e6f9110	0.2339518
249	0xbdc4361a	-0.095806316
250	0xbde91750	-0.113814
251	0x3ec3de0c	0.38255346
252	0x3e34a35b	0.1764044
253	0xbc0d4262	-0.008621784
254	0x3cb71b90	0.02235201
255	0xbd96bdc6	-0.07360415

sequential/conv1d_1/Conv1D f4 [16, 1, 3, 8]
0	0x3e2ce3d2	0.16883782
1	0x3d2ab99a	0.04168091
2	0x3ea4390f	0.32074782
3	0x3ea13afe	0.3149032
4	0xbdda437b	-0.10657402
5	0xbe43ddfd	-0.1912765
6	0x3df5b387	0.11997133
7	0x3d3bb29c	0.045824632
8	0x3e1a6975	0.15079291
9	0x3d175557	0.03694662
10	0x3d8ef4dc	0.06980297
11	0x3d78add7	0.06071266
12	0xbe01d3f0	-0.12678504
13	0xbe2e780f	-0.17037986
14	0x3e040ea7	0.12896214
15	0xbe7617a1	-0.24032451
16	0x3d75e955	0.060036976
17	0x3d73c7b4	0.059516624
18	0x3dc4fb8f	0.096182935
19	0x3dc455b5	0.0958666
20	0xbe694b2a	-0.22782579
21	0xbe8c893e	-0.27448457
22	0x3dc6d9ad	0.09709487
23	0x3e2ba807	0.16763316
24	0xbe6f1953	-0.23349504
25	0x3e765701	0.24056627
26	0x3c5d3224	0.013500724
27	0x3e5964db	0.2122988
28	0xbdfae45a	-0.12250586
29	0xbeabfe8c	-0.3359264
30	0xbded114a	-0.11575563
31	0x3e11d17e	0.14240071
32	0xbe8b05d7	-0.27152893
33	0xbda84c4f	-0.0821768
34	0xbe79acc1	-0.24382307
35	0x3d7479b4	0.059686378
36	0x3e9b0645	0.3027822
37	0x3dbd3682	0.09238912
38	0xbcbc519f	-0.022988139
39	0x3e8e45bc	0.27787578
40	0x3dc424a2	0.095773
41	0x3e2cf4e2	0.1689029
42	0x3d0c7895	0.034294683
43	0xbea9712a	-0.3309415
44	0xbe26ab7d	-0.16276355
45	0xbe9f5a7d	-0.31123725
46	0xbbc491e3	-0.0059988364
47	0x3c837c5a	0.016050506
48	0xbe1f5200	-0.15558624
49	0x3dc52f98	0.096282184
50	0xbe399ff5	-0.18127425
51	0xbdd0ecf6	-0.10201447
52	0xb87848c0	-5.919556e-05
53	0xbd9e00bd	-0.077149846
54	0x3d2b2a5b	0.04178844
55	0x3e0ba824	0.1363836
56	0x3e55cc46	0.20878705
57	0x3d97f5d9	0.074199386
58	0x3e3e507f	0.18585394
59	0x3d7f5879	0.062340233
60	0x3e11ec4e	0.142503
61	0xbe918ebe	-0.28429216
62	0x3cc5c0b9	0.024139749
63	0x3e539558	0.20662439
64	0xbe666345	-0.22498806
65	0x3dd3eb36	0.10347597
66	0x3d124b45	0.035716314
67	0xbe70b66d	-0.2350709
68	0xbcad349c	-0.02114325
69	0x3df459dd	0.119312026
70	0x3ea742f4	0.3266827
71	0xbe0a7d9a	-0.13524476
72	0x3e62f26c	0.22162789
73	0xbe86da51	-0.26338437
74	0x3e8ed986	0.27900332
75	0x3c9594f1	0.018259497
76	0x3e258a19	0.16165961
77	0xbe8d98c7	-0.27655622
78	0xbeb70985	-0.3574945
79	0x3e6fd9c5	0.23422916
80	0x3e1c7c08	0.15281689
81	0xbe6db27d	-0.23212619
82	0xbe03e1c5	-0.12879093
83	0x3ee0f54c	0.43937147
84	0x3e26497c	0.1623897
85	0xbe3a2197	-0.18176876
86	0xbe9a54d4	-0.30142844
87	0x3e19eb54	0.15031177
88	0xbdb34d49	-0.08754975
89	0xbe00b1a2	-0.12567762
90	0xbd9ce5a6	-0.076609895
91	0xbe0cca0d	-0.13748951
92	0xbb3a01fc	-0.002838253
93	0xbe83bdfb	-0.2573088
94	0x3dadca8f	0.084859006
95	0x3de70677	0.1128053
96	0xbe50491f	-0.20340393
97	0x3c8c4c03	0.017126089
98	0xbe9036b8	-0.28166747
99	0xbdc80b49	-0.097677775
100	0xbe042c5d	-0.12907548
101	0xbea9793b	-0.33100304
102	0xbc35cfd7	-0.011096916
103	0x3e95cd87	0.29258367
104	0xbe3f588d	-0.18686123
105	0x3e2df31d	0.16987272
106	0xbdceb6a6	-0.10093431
107	0xbe65a584	-0.2242642
108	0x3d87692f	0.06611859
109	0x3dd63a0a	0.10460289
110	0xbd2d6621	-0.042333726
111	0x3e4e4911	0.2014506
112	0x3dfe39a4	0.12413338
113	0x3e9c2ded	0.3050379
114	0x3e5c9659	0.21541728
115	0xbe49e569	-0.1971642
116	0xbe138166	-0.1440483
117	0x3e83425c	0.25636566
118	0xbe31e103	-0.17370991
119	0xbd9af850	-0.07566893
120	0xbeb095af	-0.344892
121	0x3e8e72f0	0.27822065
122	0x3e1c2a74	0.1525057
123	0x3d8d7936	0.06907885
124	0xbdb8b4be	-0.09018849
125	0xbe9afc61	-0.30270675
126	0xbe881807	-0.2658083
127	0x3e51cffd	0.20489497
128	0xbebd4538	-0.36966872
129	0x3e629ad6	0.22129378
130	0xbe20671f	-0.15664338
131	0xbe251e77	-0.16124903
132	0x3de21d6b	0.11040767
133	0x3e139214	0.14411193
134	0xbeb458b4	-0.35223925
135	0xbd9b7eb0	-0.07592523
136	0xbeba004a	-0.36328346
137	0x3ec64d2b	0.3873075
138	0x3c3a9fab	0.011390607
139	0xbc3a0fe7	-0.0113563305
140	0xbd554e9f	-0.052076932
141	0x393e2610	0.00018133991
142	0xbe6d62bf	-0.231822
143	0x3e82d86d	0.25555745
144	0x3ecd3f7a	0.4008749
145	0xbe23977f	-0.1597576
146	0x3e44432d	0.1916625
147	0x3e2a2952	0.16617325
148	0xbde6879d	-0.11256335
149	0xbea6040e	-0.32424968
150	0x3e825bba	0.25460607
151	0x3d8c39a2	0.0684693
152	0x3ed34b76	0.4126851
153	0xbe749d4e	-0.23888132
154	0x3e951f9d	0.29125682
155	0xbe84efdc	-0.25964248
156	0x3bf2f494	0.00741441
157	0xbd0ff342	-0.035144098
158	0xbdeffb83	-0.11717894
159	0xbcbe59ae	-0.023236122
160	0xbb9fca50	-0.0048764125
161	0xbe7a08dc	-0.24417442
162	0x3b527ce9	0.003211791
163	0x3e17daaf	0.14829515
164	0xbd3d0f99	-0.046157453
165	0xbe4708b1	-0.1943691
166	0xbe810216	-0.25196904
167	0xbd5e91eb	-0.054338377
168	0xbe24aece	-0.16082308
169	0x3dbab40f	0.09116375
170	0xbe05380d	-0.13009663
171	0xbeac25ec	-0.33622682
172	0xbe4659bb	-0.19370167
173	0x3ec56e48	0.385607
174	0x3e50f4bb	0.20405857
175	0xbd5142b3	-0.051089
176	0x3db62312	0.08893408
177	0x3e7225bf	0.23647211
178	0x3dd00551	0.10157264
179	0x3dddc190	0.10827935
180	0x3e91a6d4	0.28447592
181	0x3ed4907c	0.41516483
182	0x3e201268	0.15632021
183	0xbdbb6cb5	-0.091515936
184	0xbd6d8863	-0.057991397
185	0x3d4c60a0	0.049896836
186	0xbe651444	-0.22371012
187	0xbdd3f2bb	-0.103490315
188	0x3eca66ae	0.39531463
189	0x3e06b99d	0.13156743
190	0x3ebb45fe	0.36576837
191	0xbd3daaf1	-0.0463056
192	0xbb86f728	-0.004118819
193	0xbea0108a	-0.31262618
194	0x3e30466d	0.17214365
195	0x3df0a04a	0.11749323
196	0xbe17334b	-0.1476566
197	0xbdd5e400	-0.10443878
198	0x3d99ae2a	0.07503922
199	0x3d948808	0.072525084
200	0xbe4408e8	-0.19144022
201	0xbe3ef526	-0.18648204
202	0xbe4e6305	-0.2015496
203	0x3e7165a8	0.23573935
204	0x3e81a5c4	0.25321782
205	0xbe0599a5	-0.13046892
206	0xbe800e28	-0.250108
207	0x3e9976e2	0.29973513
208	0xbd527f7c	-0.05139111
209	0xbe1b7e22	-0.15184835
210	0x3e755143	0.2395678
211	0x3dd75457	0.105141334
212	0xbdfaf4e7	-0.12253743
213	0x3d3acd80	0.045606136
214	0xbdba0dc0	-0.09084654
215	0xbdba0e9e	-0.09084819
216	0x3de868be	0.11348103
217	0xbe46daf8	-0.19419467
218	0x3d8f6e32	0.0700344
219	0x3cca79ed	0.024716342
220	0xbe3bddd4	-0.1834634
221	0x3decb63f	0.11558198
222	0x3edcf610	0.4315648
223	0x3c79ac21	0.015238793
224	0xbd236d5d	-0.03989922
225	0xbe02d2ee	-0.12775776
226	0xbe06a985	-0.13150604
227	0xbe0f1da6	-0.13976154
228	0xbd549e93	-0.05190904
229	0x3e929140	0.28626442
230	0xbc72bcac	-0.014815491
231	0xbda5ab2a	-0.080892876
232	0xbc0b6d6e	-0.008509977
233	0xbe895bd7	-0.2682788
234	0xbe2c85a6	-0.16847858
235	0x3e349619	0.17635383
236	0xbd0cd26d	-0.034380365
237	0x3edb306c	0.4281038
238	0x3d153f1e	0.036437146
239	0x3d1e89a8	0.038705498
240	0xbe738efc	-0.23785013
241	0xbe29eb7c	-0.16593736
242	0xbe8a7d5b	-0.27048764
243	0x3e93149b	0.28726658
244	0xbe4af48a	-0.19819847
245	0xbda9addf	-0.082851164
246	0x3e808d62	0.25107867
247	0x3bb385f8	0.005478617
248	0xbe53e564	-0.20692974
249	0xbe8f9a85	-0.28047577
250	0xbe94316d	-0.2894396
251	0x3d552133	0.052033614
252	0xbec4e434	-0.38455355
253	0xbe5782fa	-0.21046057
254	0xbb1d28c0	-0.0023980588
255	0x3e0e2a51	0.1388333

sequential/y_pred/BiasAdd/ReadVariableOp f4 [3]
0	0x3dcda682	0.100415245
1	0xbde5dd5c	-0.112238616
2	0x3d6cfed2	0.057860203

sequential/y_pred/MatMul f4 [3, 208]
0	0x3e06953a	0.13142863
1	0xbe0be386	-0.13661012
2	0x3e060ca2	0.13090757
3	0xbe75fefb	-0.24023049
4	0xbe12e4a2	-0.14345029
5	0xbddd4b08	-0.10805327
6	0x3ed0db01	0.40792087
7	0xbe3812d6	-0.17975935
8	0xbe5e5a58	-0.21714151
9	0x3e468984	0.19388396
10	0x3de9c006	0.11413579
11	0xbe9f8bf3	-0.3116146
12	0x3d66da45	0.0563605
13	0xbdbaae46	-0.09115271
14	0x3e8e49cb	0.27790675
15	0x3dcf0916	0.10109155
16	0x3ccc8cf3	0.024969554
17	0xbe5833a7	-0.21113454
18	0xbdb7c480	-0.08973026
19	0x3e5879ee	0.21140262
20	0xbe2ccbf9	-0.16874684
21	0x3d9187fc	0.07106015
22	0x3e85abf7	0.2610776
23	0xbbc60050	-0.0060425177
24	0xbe03a892	-0.12857273
25	0xbd8a9cd0	-0.06768191
26	0x3ec9e593	0.39432964
27	0xbda5d116	-0.080965206
28	0xbd87840d	-0.066169836
29	0xbe67fd7a	-0.22655287
30	0x3e459c82	0.19297984
31	0xbe2ee570	-0.17079711
32	0x3de58d55	0.112085976
33	0xbc590a58	-0.013247095
34	0xbdd30950	-0.103045106
35	0xbd042011	-0.032257143
36	0x38857210	6.36318e-05
37	0xbe6e8503	-0.23292927
38	0xbd0140ae	-0.031555824
39	0x3d437727	0.047721054
40	0x3d8b9316	0.06815164
41	0xbcfb3e4e	-0.030669358
42	0x3ec3fd48	0.38279176
43	0x3e1166a5	0.14199312
44	0x3e2ecef2	0.17071131
45	0xbe405c51	-0.18785216
46	0x3e297e51	0.16552092
47	0xbe08c663	-0.13356929
48	0x3d314cfe	0.043286316
49	0xbcacbcb0	-0.021086067
50	0xbdfbd944	-0.122972995
51	0xbacfd1b4	-0.0015855343
52	0xbdd6ed84	-0.10494521
53	0xbe1aa0af	-0.15100358
54	0x3dc7936f	0.097449176
55	0xbd37f252	-0.04490883
56	0x3c9dfc0a	0.01928522
57	0xbdd26842	-0.10273792
58	0x3e315cb5	0.17320521
59	0xbe69078f	-0.2275679
60	0x3dec257e	0.115305886
61	0x3e3b375b	0.18282835
62	0xbd6535b4	-0.05595942
63	0xbd573cc9	-0.052548204
64	0x3cc074b6	0.023493152
65	0x3d71ab3c	0.059001192
66	0xbdebd74e	-0.115156755
67	0x3e27984d	0.16366692
68	0xbe202a2b	-0.15641086
69	0x3d103e09	0.03521541
70	0x3e34a93c	0.17642683
71	0xbe1f2d60	-0.15544653
72	0xbda8acf7	-0.082361154
73	0x3ceb4b6d	0.02872249
74	0xbd4627f5	-0.04837795
75	0xbc41cf43	-0.0118292
76	0xbe7bb3a5	-0.24580248
77	0x3db0c4ce	0.086312875
78	0x3c3fffef	0.011718734
79	0x3e45fb16	0.19334063
80	0xbdde8366	-0.10864906
81	0xbe1032e8	-0.14081919
82	0x3e1a3e8b	0.15062921
83	0x3d834bd1	0.06410945
84	0x3d0d54c9	0.034504686
85	0xbe27710e	-0.1635172
86	0x3e0f2955	0.1398061
87	0xbc0d5031	-0.008625076
88	0xbd9018f9	-0.07036013
89	0x3dd8477d	0.1056051
90	0x3cd94779	0.026523339
91	0xbe82dfc2	-0.2556134
92	0xbdc3d42a	-0.095619515
93	0x3b2f7c27	0.0026776881
94	0x3e0af4ad	0.13569899
95	0xbe39f67c	-0.18160433
96	0xbda28a2f	-0.07936513
97	0xbdbb43af	-0.09143769
98	0xbdaca0c9	-0.08429105
99	0xbd014863	-0.031563174
100	0xbe7d31b9	-0.24725999
101	0xbd9b3a27	-0.07579451
102	0xbcd2378e	-0.025661256
103	0xbbf251f4	-0.0073950235
104	0x3c2e5db8	0.0106424615
105	0xbe0d8aed	-0.13822527
106	0x3e794cf2	0.24345759
107	0xbe01f32b	-0.12690417
108	0x3d78064f	0.06055289
109	0xbc87050a	-0.016481895
110	0x3da8e972	0.08247651
111	0xbc99bf96	-0.018768113
112	0x3e1d9a55	0.15390904
113	0x3c47d03d	0.012195644
114	0xbcc668a0	-0.024219811
115	0xbbcef505	-0.0063158297
116	0xbd915af2	-0.070974246
117	0xbdc82a08	-0.09773642
118	0x3d114ac6	0.0354717
119	0x3d4a2af5	0.049357373
120	0x3d9547a3	0.07289054
121	0xbdf73f46	-0.12072615
122	0x3e8776d6	0.26457852
123	0xbe61f88c	-0.2206747
124	0xbd51b6c1	-0.05119968
125	0xbc51e2ed	-0.012810451
126	0x3e69f680	0.22847939
127	0xbe400f69	-0.18755879
128	0x3e163202	0.14667514
129	0xbe0c5dac	-0.13707608
130	0xbd283833	-0.04106922
131	0x3ddc6a13	0.107624196
132	0xbe272c98	-0.16325605
133	0xbe488c7c	-0.1958484
134	0x3e0e7319	0.13911094
135	0xbd4cfb5a	-0.050044395
136	0x3e2959d1	0.16538168
137	0xbe02d9e0	-0.12778425
138	0x3e9b131f	0.30288026
139	0x3da1cca4	0.0790036
140	0x3c9f109d	0.019417102
141	0x3be0043a	0.0068364413
142	0x3e732879	0.23745908
143	0xbc17ecdc	-0.00927278
144	0x3e1580e2	0.14599946
145	0x3e145247	0.14484511
146	0xbdaa4fee	-0.08316027
147	0x3e8a3507	0.26993582
148	0xbd7f4727	-0.062323716
149	0xbd76c742	-0.06024862
150	0x3eef6d2d	0.46762982
151	0xbe1f211e	-0.15539977
152	0x3d779338	0.060443133
153	0x3cac881d	0.021060998
154	0x3e362200	0.17786407
155	0xbc345cc6	-0.011008447
156	0x3e63915b	0.22223417
157	0xbe9efacf	-0.31050727
158	0x3e9673a4	0.29385102
159	0xbd530b51	-0.051524464
160	0x3df5a6b2	0.11994685
161	0xbdc71734	-0.097212225
162	0xbdb0527e	-0.08609484
163	0x3e857004	0.26062024
164	0xbe6bdbf5	-0.23033126
165	0xbdc74544	-0.09730008
166	0x3e932b16	0.2874381
167	0xbd7c67fe	-0.061622612
168	0xbccda8de	-0.025104936
169	0x3e0b5b41	0.1360903
170	0x3df12ba2	0.117759004
171	0x3d9973dd	0.07492802
172	0x3da606e4	0.08106783
173	0xbd2cbca4	-0.04217209
174	0x3e73c2d6	0.23804793
175	0x3d4f938b	0.050677817
176	0xbcb0126d	-0.021493161
177	0xbe121bea	-0.14268461
178	0x3de1d24e	0.110264406
179	0x3e5e6cab	0.21721141
180	0x3cbfa92a	0.023396093
181	0xbebc1086	-0.36731356
182	0x3dfde5ec	0.1239737
183	0xbd6d9d10	-0.058011115
184	0x3d68fb89	0.056880508
185	0x3de92b81	0.11385251
186	0x3e901bfd	0.28146353
187	0xbdba8a61	-0.09108425
188	0xbe10455b	-0.14088957
189	0xbdefe86e	-0.11714254
190	0x3e522b73	0.20524387
191	0xbd92f188	-0.07174975
192	0x3e4e500c	0.20147723
193	0x3db052c6	0.08609538
194	0xbddb126d	-0.10696874
195	0x3e61d6b7	0.22054563
196	0xbdae616c	-0.085146755
197	0xbde4cb21	-0.11171556
198	0x3eb58a93	0.35457286
199	0x3d356337	0.04428407
200	0xbc632510	-0.013863817
201	0x3e7f6932	0.24942473
202	0x3ed198c8	0.40936875
203	0xbe4ad20a	-0.19806686
204	0x3ed28cb7	0.41122982
205	0xbeebc0fa	-0.46045667
206	0x3da729a8	0.08162242
207	0x3e223ec6	0.15844259
208	0x3d2dab52	0.042399712
209	0x3e7c7a0e	0.24655935
210	0xbccfd88b	-0.02537181
211	0x3d95f0bd	0.07321308
212	0xbe10a468	-0.14125216
213	0x3e225528	0.15852797
214	0xbe392d16	-0.18083605
215	0xbe38efbf	-0.18060206
216	0x3e1611e3	0.1465526
217	0xbe4f5aca	-0.20249477
218	0x3d97ee61	0.07418514
219	0x3eb3a21a	0.3508461
220	0x3d79c917	0.06098279
221	0x3d3ce67f	0.046118256
222	0xbe53a7c8	-0.20669472
223	0x3dd88808	0.10572821
224	0x3d17d1ba	0.037065245
225	0x3e588c90	0.2114737
226	0xbd0dc21c	-0.034608945
227	0x3d1bf9d4	0.03808005
228	0x3e16c52e	0.14723656
229	0x3d3040fb	0.04303072
230	0x3c9a451e	0.018831786
231	0xbe2b4327	-0.16724835
232	0x3d3cdf42	0.046111353
233	0xbe09b8bb	-0.13449375
234	0xbe17e841	-0.14834692
235	0x3e506030	0.20349193
236	0xbd3bae60	-0.045820594
237	0xbcfd01d4	-0.03088466
238	0xbd1ca999	-0.03824768
239	0xbbabeeea	-0.0052469866
240	0x3db8f55a	0.09031172
241	0x3e235b33	0.15952758
242	0xbc8f0731	-0.017459484
243	0xbda69b34	-0.081350714
244	0x3e562180	0.20911217
245	0xbd35e386	-0.044406436
246	0xbe5ad5df	-0.21370648
247	0x3cb2bfc9	0.021819966
248	0xbc114f8f	-0.008869066
249	0xbe41dfb6	-0.18932995
250	0xbeaeed33	-0.34165344
251	0x3c7b5161	0.015339226
252	0xbe843149	-0.25818852
253	0xbe629b0a	-0.22129455
254	0xbdbc1051	-0.091827996
255	0x3e832ca0	0.25619984
