tensorflow-lite-int8-quantized-model.3.lite (tflite, 6448 bytes, 3 tensors)

sequential/y_pred/MatMul i1 [3, 208] scale=0.0041454667 zero_point=0
000000 20 df 20 c6 dd e6 62 d5 cc 2f 1c b5 0e ea 43 18
       0.13265494 -0.13680041 0.13265494 -0.24043708 -0.14509134 -0.10778213 0.40625575 -0.17825507 -0.21556427 0.19483693 0.11607307 -0.31091002 0.058036536 -0.09120027 0.27774626 0.0994912
000010 06 cd ea 33 d7 11 3f ff e1 f0 5f ec f0 c9 2f d7
       0.0248728 -0.21141881 -0.09120027 0.21141881 -0.16996413 0.07047293 0.2611644 -0.0041454667 -0.12850946 -0.06632747 0.39381933 -0.08290933 -0.06632747 -0.22800067 0.19483693 -0.16996413
000020 1b fd e7 f8 00 c8 f8 0c 10 f9 5c 22 29 d3 28 e0
       0.1119276 -0.0124364 -0.10363667 -0.033163734 0.0 -0.23214614 -0.033163734 0.0497456 0.06632747 -0.029018268 0.38138294 0.14094587 0.16996413 -0.186546 0.16581866 -0.13265494
000030 0a fb e2 00 e7 dc 18 f5 05 e7 2a c9 1c 2c f3 f3
       0.041454665 -0.020727333 -0.124364 0.0 -0.10363667 -0.1492368 0.0994912 -0.045600135 0.020727333 -0.10363667 0.17410961 -0.22800067 0.11607307 0.18240054 -0.053891066 -0.053891066
000040 06 0e e4 27 da 08 2b db ec 07 f4 fd c5 15 03 2f
       0.0248728 0.058036536 -0.11607307 0.1616732 -0.15752773 0.033163734 0.17825507 -0.15338227 -0.08290933 0.029018268 -0.0497456 -0.0124364 -0.24458253 0.087054804 0.0124364 0.19483693
000050 e6 de 24 0f 08 d9 22 fe ef 19 06 c2 e9 01 21 d4
       -0.10778213 -0.14094587 0.1492368 0.062182 0.033163734 -0.1616732 0.14094587 -0.008290933 -0.07047293 0.10363667 0.0248728 -0.25701892 -0.095345736 0.0041454667 0.13680041 -0.18240054
000060 ed ea ec f8 c4 ee fa fe 03 df 3b e1 0f fc 14 fb
       -0.078763865 -0.09120027 -0.08290933 -0.033163734 -0.248728 -0.0746184 -0.0248728 -0.008290933 0.0124364 -0.13680041 0.24458253 -0.12850946 0.062182 -0.016581867 0.08290933 -0.020727333
000070 25 03 fa fe ef e8 09 0c 12 e3 40 cb f4 fd 37 d3
       0.15338227 0.0124364 -0.0248728 -0.008290933 -0.07047293 -0.0994912 0.0373092 0.0497456 0.0746184 -0.12021854 0.26530987 -0.21970974 -0.0497456 -0.0124364 0.22800067 -0.186546
000080 23 df f6 1a d9 d1 22 f4 28 e1 49 13 05 02 39 fe
       0.14509134 -0.13680041 -0.041454665 0.10778213 -0.1616732 -0.19483693 0.14094587 -0.0497456 0.16581866 -0.12850946 0.30261907 0.078763865 0.020727333 0.008290933 0.2362916 -0.008290933
000090 23 23 ec 41 f1 f1 71 db 0f 05 2b fd 36 b5 47 f4
       0.14509134 0.14509134 -0.08290933 0.26945534 -0.062182 -0.062182 0.46843773 -0.15338227 0.062182 0.020727333 0.17825507 -0.0124364 0.2238552 -0.31091002 0.29432812 -0.0497456
0000a0 1d e9 eb 3f c8 e9 45 f1 fa 21 1c 12 14 f6 39 0c
       0.12021854 -0.095345736 -0.087054804 0.2611644 -0.23214614 -0.095345736 0.2860372 -0.062182 -0.0248728 0.13680041 0.11607307 0.0746184 0.08290933 -0.041454665 0.2362916 0.0497456
0000b0 fb de 1b 34 06 a7 1e f2 0e 1b 44 ea de e4 32 ef
       -0.020727333 -0.14094587 0.1119276 0.21556427 0.0248728 -0.36894655 0.124364 -0.058036536 0.058036536 0.1119276 0.28189173 -0.09120027 -0.14094587 -0.11607307 0.20727333 -0.07047293
0000c0 31 15 e6 35 eb e5 56 0b fd 3c 63 d0 63 91 14 26
       0.20312788 0.087054804 -0.10778213 0.21970974 -0.087054804 -0.1119276 0.35651013 0.045600135 -0.0124364 0.248728 0.4104012 -0.1989824 0.4104012 -0.4601468 0.08290933 0.15752773
0000d0 0a 3b fa 12 de 26 d4 d4 23 cf 12 55 0f 0b ce 1a
       0.041454665 0.24458253 -0.0248728 0.0746184 -0.14094587 0.15752773 -0.18240054 -0.18240054 0.14509134 -0.20312788 0.0746184 0.35236466 0.062182 0.045600135 -0.20727333 0.10778213
0000e0 09 33 f8 09 24 0a 05 d8 0b e0 dc 31 f5 f9 f7 ff
       0.0373092 0.21141881 -0.033163734 0.0373092 0.1492368 0.041454665 0.020727333 -0.16581866 0.045600135 -0.13265494 -0.1492368 0.20312788 -0.045600135 -0.029018268 -0.0373092 -0.0041454667
0000f0 16 26 fc ec 32 f5 cc 05 fe d2 ae 04 c2 cb ea 3e
       0.09120027 0.15752773 -0.016581867 -0.08290933 0.20727333 -0.045600135 -0.21556427 0.020727333 -0.008290933 -0.19069147 -0.33992827 0.016581867 -0.25701892 -0.21970974 -0.09120027 0.25701892

sequential/conv1d_1/Conv1D i1 [16, 1, 3, 8]
000000 43 11 7f 7d d6 b4 30 12 3c 0f 1c 18 ce bd 33 a1
       67 17 127 125 -42 -76 48 18 60 15 28 24 -50 -67 51 -95
000010 18 18 26 26 a6 93 26 42 a8 5b 05 50 d2 81 d4 36
       24 24 38 38 -90 -109 38 66 -88 91 5 80 -46 -127 -44 54
000020 99 e1 a4 17 72 23 f7 69 24 40 0d 83 c2 8a fe 06
       -103 -31 -92 23 114 35 -9 105 36 64 13 -125 -62 -118 -2 6
000030 c4 25 ba d8 00 e2 10 35 51 1d 48 18 37 91 09 50
       -60 37 -70 -40 0 -30 16 53 81 29 72 24 55 -111 9 80
000040 a9 28 0e a5 f8 2e 7f cb 40 b4 51 05 2f b0 99 44
       -87 40 14 -91 -8 46 127 -53 64 -76 81 5 47 -80 -103 68
000050 2c bd db 7f 2f cb a9 2b e7 dc ea d8 ff b6 19 21
       44 -67 -37 127 47 -53 -87 43 -25 -36 -22 -40 -1 -74 25 33
000060 b2 07 94 db ce 81 fc 70 b8 41 d9 aa 19 28 f0 4d
       -78 7 -108 -37 -50 -127 -4 112 -72 65 -39 -86 25 40 -16 77
000070 30 75 53 b4 c9 62 bd e3 8f 5b 32 17 e2 9d a9 43
       48 117 83 -76 -55 98 -67 -29 -113 91 50 23 -30 -99 -87 67
000080 87 49 cd cb 24 2f 8c e7 89 7f 04 fc ef 00 b4 54
       -121 73 -51 -53 36 47 -116 -25 -119 127 4 -4 -17 0 -76 84
000090 7b cf 3b 33 dd 9c 4e 15 7f b6 5a b0 02 f5 dc f9
       123 -49 59 51 -35 -100 78 21 127 -74 90 -80 2 -11 -36 -7
0000a0 fe b5 01 2e f2 c4 b2 ef cf 1c d8 99 c5 76 3e f0
       -2 -75 1 46 -14 -60 -78 -17 -49 28 -40 -103 -59 118 62 -16
0000b0 1b 48 1f 21 57 7f 30 e4 ee 0f bc e0 79 28 70 f2
       27 72 31 33 87 127 48 -28 -18 15 -68 -32 121 40 112 -14
0000c0 fe 81 46 30 c4 d6 1e 1d b2 b4 ae 60 67 cb 9a 7a
       -2 -127 70 48 -60 -42 30 29 -78 -76 -82 96 103 -53 -102 122
0000d0 eb c2 61 2b ce 13 db db 21 c7 15 07 ca 22 7f 04
       -21 -62 97 43 -50 19 -37 -37 33 -57 21 7 -54 34 127 4
0000e0 f4 da d9 d7 f1 54 fc e8 fd b1 ce 34 f6 7e 0b 0b
       -12 -38 -39 -41 -15 84 -4 -24 -3 -79 -50 52 -10 126 11 11
0000f0 c3 d6 bb 49 cd eb 40 01 cb b8 b6 0d 9e ca ff 23
       -61 -42 -69 73 -51 -21 64 1 -53 -72 -74 13 -98 -54 -1 35

sequential/conv1d/Conv1D i1 [8, 1, 3, 13]
000000 fa 1b 2a fe bd fb 0b 1c f0 b9 fe d0 5a c8 df 41
       -6 27 42 -2 -67 -5 11 28 -16 -71 -2 -48 90 -56 -33 65
000010 d5 e0 e9 b0 5b e1 fb 0f 0e 13 38 81 2d cf 9f 23
       -43 -32 -23 -80 91 -31 -5 15 14 19 56 -127 45 -49 -97 35
000020 ce 2b 38 e6 06 f6 58 86 18 b0 5a ee 79 87 2e 07
       -50 43 56 -26 6 -10 88 -122 24 -80 90 -18 121 -121 46 7
000030 d8 b8 00 22 cb 3a c6 e7 c8 7e 60 54 cc 08 18 23
       -40 -72 0 34 -53 58 -58 -25 -56 126 96 84 -52 8 24 35
000040 e6 81 d4 8d 41 19 da dd 35 1c 40 b4 d4 eb 39 4e
       -26 -127 -44 -115 65 25 -38 -35 53 28 64 -76 -44 -21 57 78
000050 d1 97 d6 81 1a 3d c9 d5 f9 ef 62 b4 e2 2e 24 c9
       -47 -105 -42 -127 26 61 -55 -43 -7 -17 98 -76 -30 46 36 -55
000060 36 e4 60 c8 e3 0f 11 a7 f6 83 32 8a cc 33 8d 52
       54 -28 96 -56 -29 15 17 -89 -10 -125 50 -118 -52 51 -115 82
000070 70 a8 ff bb 15 c9 b6 0e eb 35 c8 66 da 35 8c 11
       112 -88 -1 -69 21 -55 -74 14 -21 53 -56 102 -38 53 -116 17
000080 8c 1b 0a ee 18 4a 2e 08 45 14 15 2a 21 ec 18 43
       -116 27 10 -18 24 74 46 8 69 20 21 42 33 -20 24 67
000090 d4 7f 20 29 12 60 f9 ff f4 d0 cd be 4e ec ef 59
       -44 127 32 41 18 96 -7 -1 -12 -48 -51 -66 78 -20 -17 89
0000a0 dc 04 d3 2b e8 1a c5 47 37 22 a1 7f f6 eb b3 ce
       -36 4 -45 43 -24 26 -59 71 55 34 -95 127 -10 -21 -77 -50
0000b0 ce f3 a3 a9 ac ef 04 0f 5d e3 c9 33 90 e8 25 cb
       -50 -13 -93 -87 -84 -17 4 15 93 -29 -55 51 -112 -24 37 -53
0000c0 a7 13 cf c6 e3 ff 2d 12 00 ed e8 e4 fb 07 26 42
       -89 19 -49 -58 -29 -1 45 18 0 -19 -24 -28 -5 7 38 66
0000d0 46 cf 26 8f 42 e5 43 f3 e3 7b b2 4a a5 19 58 a8
       70 -49 38 -113 66 -27 67 -13 -29 123 -78 74 -91 25 88 -88
0000e0 47 8e 5d 32 d4 7f f4 04 a5 6a 0c 5a 15 1a 35 c8
       71 -114 93 50 -44 127 -12 4 -91 106 12 90 21 26 53 -56
0000f0 1c c0 bf f8 d7 ff c2 c5 41 e5 e0 6a 31 fe 06 ec
       28 -64 -65 -8 -41 -1 -62 -59 65 -27 -32 106 49 -2 6 -20
